_________________________________________________________________
Layer (type)                 Output Shape              Param #   
=================================================================
INPUT  (LSTM)                (None, 561, 32)           4352      
_________________________________________________________________
HIDDEN 1  (LayerNormalizatio (None, 561, 32)           64        
_________________________________________________________________
HIDDEN 2  (LSTM)             (None, 561, 32)           8320      
_________________________________________________________________
HIDDEN 3  (Dropout)          (None, 561, 32)           0         
_________________________________________________________________
HIDDEN 4  (LSTM)             (None, 32)                8320      
_________________________________________________________________
OUTPUT  (Dense)              (None, 7)                 231       
=================================================================
Total params: 21,287
Trainable params: 21,287
Non-trainable params: 0
_________________________________________________________________
None

Train on 5881 samples, validate on 1471 samples
Epoch 1/15
5881/5881 [==============================] - 336s 57ms/step - loss: 1.5147 - acc: 0.3396 - val_loss: 1.1136 - val_acc: 0.4133
…
