
Layer (type)                 Output Shape              Param #   
=================================================================
INPUT  (LSTM)                (None, 561, 32)           4352      
_________________________________________________________________
HIDDEN 1  (LayerNormalizatio (None, 561, 32)           64        
_________________________________________________________________
HIDDEN 2  (Conv1D)           (None, 559, 16)           1552      
_________________________________________________________________
HIDDEN 3  (LayerNormalizatio (None, 559, 16)           32        
_________________________________________________________________
HIDDEN 4  (Dropout)          (None, 559, 16)           0         
_________________________________________________________________
HIDDEN 5  (LSTM)             (None, 559, 32)           6272      
_________________________________________________________________
HIDDEN 6  (LayerNormalizatio (None, 559, 32)           64        
_________________________________________________________________
HIDDEN 7  (Dropout)          (None, 559, 32)           0         
_________________________________________________________________
HIDDEN 8  (Conv1D)           (None, 557, 32)           3104      
_________________________________________________________________
HIDDEN 9  (LayerNormalizatio (None, 557, 32)           64        
_________________________________________________________________
HIDDEN 10  (Dropout)         (None, 557, 32)           0         
_________________________________________________________________
HIDDEN 11  (LSTM)            (None, 32)                8320      
_________________________________________________________________
OUTPUT  (Dense)              (None, 7)                 231       
=================================================================
Total params: 24,055
Trainable params: 24,055
Non-trainable params: 0
_________________________________________________________________
None
WARNING:tensorflow:From C:\Anaconda\lib\site-packages\tensorflow_core\python\ops\math_grad.py:1424: where (from tensorflow.python.ops.array_ops) is deprecated and will be removed in a future version.
…
